Utilizing_PSG/Task2/model_1000.pt (torch, 140133 bytes, 9 tensors)

lstm.weight_ih_l0 f4 [256, 50]
000000 1d 6d 93 bd 15 9c 01 be 7d ed e9 bb 95 65 a9 3d
       -0.07198546 -0.12657197 -0.0071389065 0.08271328
000010 cc fc dd 3e 8f 83 15 3e 64 fd 1a bd 2d 46 2d be
       0.4335693 0.14600967 -0.03783931 -0.16921301
000020 ac d1 ac 3d 51 5f ab be 1d 00 a0 3e bf c9 39 3b
       0.08438429 -0.33471158 0.31250086 0.002834901
000030 bc 1d c4 3d 67 8a 62 be 79 b9 18 be 6f 3d a0 3d
       0.09575984 -0.22123109 -0.14914502 0.078242175
000040 22 81 b3 bd 8b 60 08 3d 95 85 1e be 47 55 0a be
       -0.087648645 0.033295196 -0.15480645 -0.13509093
000050 a9 48 10 3f 9b 8f 25 be 0e 21 91 be 1a be f5 3c
       0.5636087 -0.16168062 -0.2834553 0.029997874
000060 4d 5d ee 3d 94 dc b9 be 3c d5 f8 bc c8 1e 72 be
       0.116388895 -0.363011 -0.030375116 -0.23644555
000070 f3 cc 37 3e 76 36 13 3d d1 18 36 3e 7c b6 8d 3d
       0.17949276 0.03594061 0.17782904 0.06919572
000080 bd 72 e3 be 0d f0 f3 bd 33 60 e0 3e 1e 02 40 3e
       -0.44423476 -0.119110204 0.43823394 0.18750808
000090 94 f1 02 3e 93 43 5e 3e b3 20 89 be a6 2a 00 3e
       0.12787467 0.21705465 -0.2678276 0.12516269
0000a0 79 34 c5 bd d0 bf b3 3d 22 93 b4 bd 81 f0 48 3c
       -0.09629149 0.0877682 -0.08817126 0.012264372
0000b0 2c 6d a7 be 35 3f d1 3e 98 35 55 bd 20 99 7f 3e
       -0.3270048 0.40868536 -0.052053064 0.24960756
0000c0 61 19 a3 bd 46 eb db 3d 5f 29 33 3e 14 5d af 3e
       -0.07963825 0.10738234 0.1749625 0.342507
0000d0 1c 2d 25 bd b0 19 19 3e bd 62 af 3e 05 b5 bb bd
       -0.040326223 0.14951205 0.3425502 -0.09165386
0000e0 95 a2 33 be 52 15 87 be 64 26 54 3e ee d4 41 be
       -0.17542489 -0.26383454 0.2071777 -0.18928882
0000f0 3f 95 a7 bd 04 dd 46 3e e8 7e 06 3d 3c e6 8a 3e
       -0.08182763 0.19420248 0.03283587 0.2712878
000100 cf ca f3 3c 01 96 2c be fe c2 00 be 85 f9 15 be
       0.029759793 -0.16854097 -0.12574384 -0.14645965
000110 5e 60 ee bd 31 ab a1 be a8 87 db 3e 82 cb 35 be
       -0.11639474 -0.3157592 0.42876935 -0.17753413
000120 d9 ac 51 3e 3a 7b 65 3e ad 6d 13 bd aa 9a 07 be
       0.20476092 0.22410288 -0.035993267 -0.13242593
000130 12 de c4 be be 2b ea bd a5 da 90 3e 22 a2 8a bd
       -0.38450676 -0.114341244 0.28291813 -0.06769206
000140 d0 3d 63 3e 56 45 3f 3e ce d7 8d bc 1a 14 b5 be
       0.22191548 0.18678793 -0.017314818 -0.353669
000150 8f 4e 26 be 86 ba 01 3e f5 3b 40 3d c5 f2 bf be
       -0.16240905 0.1266881 0.04693218 -0.37489906
000160 20 5d 19 be 5d 95 1c 3e bd 45 de bd 6c 15 3d be
       -0.1497693 0.15291353 -0.10853145 -0.18465203
000170 d6 ea 7d bd 32 b8 bc 3e 95 d5 80 be 8a ab d5 bd
       -0.061991535 0.3685928 -0.2516295 -0.10433109
000180 84 e1 a2 bd f4 42 10 3e 8f 3f 38 bd cc 4d 7a bc
       -0.0795317 0.1408804 -0.04498249 -0.015277337
000190 b9 e8 e5 3d ea ee 83 3e 20 fa 8c 3e ed a3 42 3e
       0.11226029 0.25768214 0.2753458 0.19007845
0001a0 c9 46 c1 3d 0c 95 cb be 7d af 3d be 67 12 2b 3d
       0.09437329 -0.3976215 -0.18523975 0.041765597
0001b0 a6 c0 41 be 59 6d 0a 3e 04 1e a7 be 21 57 35 3c
       -0.18921146 0.13518275 -0.32640088 0.011068136
0001c0 e3 f5 f5 bc 61 86 8c 3c f0 3a 29 3e e6 8a 89 be
       -0.030024474 0.01715392 0.16526389 -0.26863784
0001d0 57 f4 45 be b0 fc d4 be df e9 b1 bd 1f 96 31 3c
       -0.1933149 -0.41599035 -0.086871855 0.010839014
0001e0 6a ae 84 3e 4d f5 90 bc 04 0e 80 3e ad 16 8c 3e
       0.25914317 -0.017695094 0.25010693 0.2736105
0001f0 66 8c 15 3c 02 3d ee bc 81 bb 1d be ba c8 ac bd
       0.009127712 -0.029081825 -0.15403558 -0.08436723
000200 60 df 44 be 95 ce 3d be b7 9a 48 bc 61 f7 b6 3d
       -0.19225836 -0.18535836 -0.012243918 0.089339025
000210 8d e5 a5 bd 0d 73 94 bd f9 4c a3 be 9a 67 15 3d
       -0.08100424 -0.07248507 -0.31894663 0.036475755
000220 e7 f6 ba bd 99 01 96 bc 4a ae 44 3d 3f 88 af be
       -0.09129124 -0.018311309 0.048017778 -0.34283635
000230 9a a3 95 3e 08 34 fa be 5a 42 c0 bd b0 4c ac bd
       0.2922638 -0.48867822 -0.093876556 -0.084130645
000240 02 c0 a8 3e 2e ae d0 be 05 8e 42 3e 70 8b 8e 3d
       0.3295899 -0.4075789 0.18999489 0.06960189
000250 3e 03 7b 3e 63 0a 88 3e 87 cb 42 bc 72 35 ba be
       0.24512956 0.26570424 -0.011889345 -0.363689
000260 e7 f9 94 3e 2c ff ce 3d b4 74 e7 bd 7c e0 1f be
       0.2909691 0.10107264 -0.11301556 -0.15612978
000270 89 c9 fd bd 50 2c 8c bd 12 66 92 3d 57 2c 90 3e
       -0.123919554 -0.068443894 0.071483746 0.2815883
000280 65 8f 6b 3e b0 36 6c 3e 54 1d 6d 3e 63 37 a3 bd
       0.2300392 0.23067737 0.23155719 -0.079695486
000290 1a 07 86 3e 02 6e 86 3e 43 f7 93 be da d1 37 3c
       0.26177293 0.26255804 -0.28899583 0.011219466
0002a0 86 4e e4 bc f2 1a 24 be 80 83 7a bd c6 e9 2a bd
       -0.027869474 -0.16025904 -0.061160564 -0.04172685
0002b0 06 8a c8 3e 1c 8e 01 bc e8 7a f1 3d 32 e7 b9 bc
       0.39167804 -0.007907417 0.11791021 -0.02269325
0002c0 d7 39 ff bd 7b 02 fe 3c 39 93 fb 3e 03 99 9d 3e
       -0.12462204 0.031007042 0.4913576 0.307808
0002d0 89 a8 fe 3d ab f2 8f 3e 87 13 85 3d 58 fc 59 bd
       0.12434489 0.28114828 0.06497865 -0.05321917
0002e0 50 11 a4 3d ce ce c9 bc 49 62 d7 3d 68 b9 3e bb
       0.080111146 -0.024634745 0.10516793 -0.002910221
0002f0 66 2e 4d be e4 1e 51 be 40 c4 34 3e 8d bc 6e 3e
       -0.20037231 -0.2042194 0.17652988 0.23314114
000300 0d 78 12 bc 86 da ea 3d a6 1d fb 3c 74 41 57 3e
       -0.008939755 0.11467461 0.030653786 0.21021062
000310 b5 2a 68 bd d7 a0 98 3e af 50 94 3e 90 d4 78 3d
       -0.056681354 0.2981021 0.28967807 0.06074959
000320 7c 52 8c 3e ae e0 8d 3e 83 56 98 bd d7 86 ec 3d
       0.2740668 0.2771048 -0.07438376 0.11549156
000330 0e 71 e5 bd 8c 8e c1 3c eb 25 bb be 90 49 68 be
       -0.11203204 0.023627542 -0.36552367 -0.22684312
000340 fd 13 57 bc bc cd 91 3d 6b 42 b9 bc 4d db 83 3e
       -0.013127324 0.07119319 -0.022614678 0.2575325
000350 a4 22 c7 3d 94 34 40 be ab 78 31 3e 4f d1 0e bd
       0.09723404 -0.18770057 0.17331187 -0.03486758
000360 7f e0 97 be 01 fe 07 3e c7 57 ad be 86 de 5c be
       -0.29663464 0.13280489 -0.3385603 -0.21569261
000370 91 69 ad 3d 94 56 c8 bc 6c 37 09 bf 3c e1 2b 3d
       0.08467401 -0.024455346 -0.5360019 0.041962847
000380 1d 79 2d 3e 25 68 02 bf 94 e0 83 be 0b eb 28 3e
       0.16940732 -0.5094016 -0.25757277 0.16495912
000390 7a e3 64 3e 2a b4 4a 3d 1e 65 64 3e 5b fe 2b 3c
       0.223524 0.049488224 0.22304198 0.010497655
0003a0 8e 37 64 b9 59 f9 70 be 0b b0 18 3e ad ec c9 ba
       -0.0002176447 -0.23532619 0.14910905 -0.0015405618
0003b0 c8 5a 93 bd 15 7b e7 bd dd a4 58 be f4 fc 58 3d
       -0.071950495 -0.11302773 -0.2115664 0.05297561
0003c0 15 a6 3c 3e 36 78 b5 bd 12 56 16 3e ff d1 4c 3e
       0.1842273 -0.08860819 0.1468127 0.20001982
0003d0 ab ac 5c 3c 21 a8 5a 3e d1 fc c7 3d e4 cb 21 be
       0.013468902 0.21353199 0.09765018 -0.15800434
0003e0 db 07 dd bd 1a 2c d4 3d ed ec bb bd 64 bc 01 3f
       -0.10792514 0.10359974 -0.091760494 0.50678086
0003f0 3d f9 ff 3d 90 ed 82 3e 7d ec 98 bd 02 5c 28 be
       0.1249871 0.2557187 -0.074669816 -0.16441348

lstm.weight_hh_l0 f4 [256, 64]
000000 3b 3e 95 bd ad 9a 89 bc 6c aa 31 bd 13 0f 68 bd
       -0.0728726 -0.016797388 -0.043375418 -0.056655
000010 a7 a0 a9 bd 3a d8 dc 3d 78 36 7d bd 95 a1 86 be
       -0.08282595 0.107834294 -0.061819524 -0.26295152
000020 fb df 4d 3d 27 89 c0 3d fe 68 3c 3e 1f b2 b6 bd
       0.050262433 0.0940116 0.18399426 -0.08920693
000030 b9 1e b1 3d 32 ef 7c bc e5 c1 16 3c 9b 9f 72 bd
       0.08648438 -0.015437888 0.0092015015 -0.059234243
000040 b6 69 0c 3e 7d 33 ec bb 36 91 cc bd 33 63 00 3e
       0.137122 -0.0072082863 -0.09988634 0.12537841
000050 f2 e3 c5 bd 02 2f cc 3d bb 5c 0b 3e 6d ed 0b be
       -0.09662618 0.099699035 0.13609593 -0.1366479
000060 23 16 12 be 95 9a 5f 3d 71 1a 4f be e9 40 36 3d
       -0.14266257 0.05459078 -0.2022493 0.044495497
000070 7a 7e 18 3d 04 d1 08 3e d0 37 cd bd 61 68 5c 3c
       0.037229992 0.13360983 -0.10020411 0.01345262
000080 06 8c 2f be 1d f2 b8 bd 2d c4 b1 3d b5 e9 15 3e
       -0.17143258 -0.090305544 0.08679996 0.14639933
000090 08 d2 b1 bd b4 8d 83 3e cb 40 43 3e 2c fb f0 3c
       -0.086826384 0.25694048 0.19067685 0.029416643
0000a0 f6 22 49 be c1 c0 5e 3e 2c 04 57 be 70 08 69 3e
       -0.19642243 0.21753217 -0.20997685 0.22757125
0000b0 19 10 1d bd ce 0c d8 3d 79 3b 18 be f8 c1 b2 bd
       -0.03834543 0.10549317 -0.14866437 -0.08728403
0000c0 49 2e bb 3a 49 f2 17 be 50 f2 47 be 6e 09 de 3c
       0.0014280762 -0.14838518 -0.19526029 0.027104106
0000d0 56 d5 29 3e 0f 06 62 3d 0c 42 05 3e fe 84 16 be
       0.16585287 0.05518156 0.13013476 -0.1469917
0000e0 4e b2 28 3e f7 c0 01 3c 8d 8c 4c 3d fb 26 83 be
       0.16474268 0.007919542 0.049938727 -0.25615677
0000f0 ed f1 bd bb 37 8b 90 bc 25 8b 00 ba 98 74 f7 3c
       -0.005796662 -0.017644508 -0.00049035467 0.030206963
000100 08 9a 90 3d 8e c5 69 bd d7 94 a5 3d 7c 55 06 ba
       0.07060629 -0.05707317 0.080850296 -0.00051244325
000110 62 57 e3 3d bd 98 15 be 57 11 22 3c e3 48 bb bd
       0.11100651 -0.14609046 0.009891829 -0.091447614
000120 0a aa 70 3c 09 cf e8 bd 97 7b 40 3e 4c 68 7f 3c
       0.014688978 -0.11367614 0.18797146 0.015588831
000130 40 61 03 bd cc fd 13 3e 9b 28 f4 3d a2 39 a4 3d
       -0.032075167 0.14452285 0.119218074 0.08018805
000140 e5 92 4a 3d bb 7f 4d 3e fa a5 b4 3c 76 a9 2c be
       0.049456496 0.20068257 0.0220518 -0.16861519
000150 8c 28 f7 bd 22 31 13 3d 87 5e 3c 3e 11 8c e8 bd
       -0.120682806 0.03593553 0.18395434 -0.113548405
000160 be c0 ea bd f1 aa eb 3c a5 c3 0a be f6 ba 6f be
       -0.11462544 0.028768035 -0.13551195 -0.23411164
000170 cc f9 05 be 5a 11 94 3e d5 f6 8a bd 87 17 85 3e
       -0.13083571 0.28919488 -0.06785361 0.25994512
000180 e9 a6 a9 3d b4 f5 f1 3d 0d 65 e9 3d 80 2f 97 bd
       0.08283789 0.11814442 0.11396227 -0.07382107
000190 a8 3c 0c be 36 e2 46 3d ab 7f 95 bc b6 0d ff ba
       -0.13695014 0.048555575 -0.018249353 -0.0019459042
0001a0 c2 41 5a 3d 71 6e 05 3e 71 83 f3 3d 94 19 48 be
       0.053285368 0.13030411 0.11890305 -0.19541007
0001b0 84 2e 1d be 69 c8 13 be f3 87 65 bd 09 8c 34 be
       -0.15349776 -0.14431919 -0.056037854 -0.17631544
0001c0 a7 ec be 3b b3 c1 9c bd af 8f 13 3c 43 87 c5 bc
       0.005826551 -0.07654133 0.009006425 -0.02411235
0001d0 cd ca da 3d 90 33 66 bc 3e 83 95 bc 53 69 32 3e
       0.106832124 -0.014050379 -0.018251058 0.1742299
0001e0 bb be 11 3c 71 fe a4 bc 6e db a0 bd 0a 6b c0 bd
       0.008895571 -0.020140858 -0.07854353 -0.09395416
0001f0 a9 56 40 3e 04 ec 56 3e ce 5e 43 3e 55 a8 83 3e
       0.18783058 0.2098847 0.19079134 0.25714365
000200 27 1e ae 3d a4 64 a0 bd a5 be 3b be f8 1e 60 bc
       0.08501845 -0.07831696 -0.18334444 -0.0136792585
000210 9d 90 f3 bd 7d 9f a3 3e 4e 26 6d 3d cc 80 3b be
       -0.11892817 0.31957617 0.05789786 -0.18310851
000220 d3 c0 e9 bd cf 88 98 bd 20 67 b7 3d e4 29 7c be
       -0.114137314 -0.07447969 0.089552164 -0.24625355
000230 45 bf 9d 3d d4 76 23 be 64 75 2a be e3 09 a7 bc
       0.077024974 -0.15963298 -0.16646343 -0.020390457
000240 43 37 2b bd 1a b8 0b be b2 c9 c9 3c 9c aa 65 3e
       -0.04180075 -0.13644448 0.024632309 0.22428364
000250 00 ce c1 3d 9b 22 1a 3e 1b 63 9a 3c 9c f2 2e be
       0.094631195 0.15052263 0.018846085 -0.17084736
000260 7f 4b fc bd a1 57 be bd c5 87 4f bd 61 59 04 3e
       -0.12319087 -0.09294058 -0.05066659 0.1292472
000270 61 f3 8c bd e5 25 03 3e 12 c0 94 be 6a 87 9f 3d
       -0.06882358 0.12807424 -0.29052788 0.077895
000280 ef ad e9 be 7f 0e 74 be 92 2e 4f 3e 09 a9 ae 3e
       -0.45640513 -0.23833655 0.20232609 0.3411334
000290 37 ed 2b 3e e3 c1 89 bd c4 6c 77 3e 44 0c 98 3d
       0.16789709 -0.06726434 0.24162585 0.074242145
0002a0 23 b6 95 3d 78 1c e6 3d 19 c7 08 b9 cd 93 4c 3e
       0.073101304 0.11235899 -0.0001304414 0.19978257
0002b0 3d c5 3b 3e 34 2f ad 3c 5b 09 48 be 01 d5 84 3e
       0.18336959 0.021140672 -0.19534819 0.2594376
0002c0 74 ea 02 bd 7c d1 f9 bc d1 c5 98 be 45 d9 a0 3d
       -0.031961873 -0.030495398 -0.29838422 0.07853941
0002d0 0c c3 81 3e ea a2 84 3e 71 dc bc 3d 83 76 89 be
       0.2534412 0.25905544 0.09221733 -0.2684823
0002e0 e5 f2 0b 3e 1e 27 de 3e d0 34 a4 3d fd 5e 97 bd
       0.13666876 0.4338922 0.08017886 -0.073911645
0002f0 f1 18 a8 3e 41 7e fc 3d a6 0f de 3d 3c eb fb 3d
       0.3283153 0.123287685 0.108428285 0.12300727
000300 6c 6c 01 3d 14 96 9b 3a c1 26 89 bc b8 2a 49 3e
       0.03159754 0.0011870288 -0.016742112 0.19645202
000310 1d 48 1e be 8e c7 5a b9 79 1a b6 3d e9 80 5b 3d
       -0.15457197 -0.0002086444 0.08891768 0.053589735
000320 a7 49 61 3e 5c 11 8f be 9d 69 0a 3e bd d2 9e be
       0.22000752 -0.27942932 0.13516851 -0.31020156
000330 16 5e 05 3e 50 d3 7a be 21 25 a0 3e 5c d9 21 bd
       0.13024172 -0.24494672 0.31278327 -0.03951393
000340 45 c9 70 be 65 67 4c be 68 87 89 bd 97 66 a8 3e
       -0.23514278 -0.19961317 -0.0671528 0.3289077
000350 78 ae a7 3d 38 66 b1 3d 8f 6c 37 3e d0 7a 94 3d
       0.08187574 0.08662075 0.17912506 0.07249987
000360 08 50 63 3d 7b 7d 0f be 80 0a 70 be d8 37 be 3d
       0.055496246 -0.14012711 -0.23441505 0.09287995
000370 5f 6c 4a be c0 79 a5 3e 43 c0 95 bd f1 5a b0 bb
       -0.19767903 0.3231945 -0.07312062 -0.005381935
000380 24 17 98 be 3a df c8 3b e6 11 d5 3e 77 26 00 be
       -0.29705155 0.0061301263 0.41615218 -0.12514673
000390 22 d2 ff 3d fd f2 33 3b 1f 61 3d 3e da 3f 84 bd
       0.124912515 0.0027458065 0.1849408 -0.06457491
0003a0 66 88 e4 3d 3a 70 b4 3e 32 a7 c8 bd da c2 91 bd
       0.111588284 0.35241872 -0.09797515 -0.07117243
0003b0 82 94 3e 3e de 82 46 bb 9d 2f 8e be 3a 81 14 3e
       0.18611339 -0.0030290405 -0.277707 0.14502421
0003c0 32 02 13 be d9 38 8f be ba df 2e be 1c 90 4a 3e
       -0.14356306 -0.2797306 -0.17077532 0.19781536
0003d0 40 b1 d5 3e d9 89 da 3c f4 03 a1 3e 89 d4 35 be
       0.41736794 0.026677059 0.31448328 -0.17756857
0003e0 99 3e 73 3e 6b 56 22 3e e0 cf 83 3e d0 72 92 be
       0.23754348 0.15853278 0.25744534 -0.2860322
0003f0 12 28 73 be 38 50 cd bd 24 0c 70 3e b8 26 12 3e
       -0.23745754 -0.10025066 0.23442131 0.14272583

lstm.bias_ih_l0 f4 [256]
000000 92 f9 b3 3d f5 ae 6e 3d 23 bf 64 3d ea 80 db 3c
       0.08787836 0.05827232 0.055846345 0.02679487
000010 d4 0c 40 3e b2 d7 40 3d 20 35 61 3e 9a 00 a7 bd
       0.18754894 0.047080703 0.21992922 -0.081544116
000020 87 42 6b 3e a3 a8 ae 3e 2c f3 a9 3c 3c e1 66 3e
       0.22974597 0.34113035 0.020745836 0.22546858
000030 b1 26 06 3e 78 f1 68 3e db 4b 06 3d b6 b4 cc 3d
       0.13100697 0.22748363 0.032787185 0.099954054
000040 23 7d 09 3e c3 70 a8 3c 83 22 06 3e 19 ef 0f bd
       0.13426642 0.020561581 0.13099103 -0.03514013
000050 fa a1 1d 3e 6a 27 5c bd e1 2d 5c 3e 26 43 cf bd
       0.1539382 -0.053748526 0.21501876 -0.101202294
000060 bc 6d d7 bc c2 bf e8 3d 97 3d e9 3d c2 57 1f 3d
       -0.026297443 0.113647 0.113887005 0.03890205
000070 0c 84 6f 3c 3a 57 82 3d 12 3e 82 3e 24 c8 d3 bd
       0.014618885 0.063642934 0.2543798 -0.10340908
000080 fe f6 cc bd 13 dc 3b 3d 4e 55 3b 3e 22 ad 46 be
       -0.100080475 0.045864176 0.1829426 -0.19401982
000090 ca b0 88 bc 6c e0 4e 3d 98 54 64 3c 4d a7 b0 bd
       -0.016685862 0.050506994 0.013936184 -0.0862566
0000a0 08 7b 03 be 7e 7d 9a 3c db 17 77 3e 19 09 56 3e
       -0.12839901 0.018858667 0.24130194 0.20901908
0000b0 81 85 de bb 76 34 6f 3e 25 99 84 3e 3c ac ab bd
       -0.0067908172 0.23359856 0.2589809 -0.083824605
0000c0 62 07 ab 3d 98 80 61 bd b3 b2 c9 bd 08 82 5a 3e
       0.083510175 -0.055054277 -0.09848537 0.21338665
0000d0 b8 d5 22 be fd f5 ec 3b 1f 26 6a 3d 36 ea 10 3c
       -0.1590184 0.0072314725 0.05716526 0.008844903
0000e0 27 de 88 3d d1 88 f3 3d 38 aa ce 3c a5 f9 6d 3e
       0.06682997 0.1189133 0.025227651 0.23239763
0000f0 3a 4e c0 bd 19 6c ce 3c 6e 66 08 be 66 4d e8 bc
       -0.093899205 0.02519803 -0.13320324 -0.028357219
000100 02 1d 51 3e d5 36 33 3e 12 ad 07 bd 03 08 89 3e
       0.20421222 0.17501386 -0.033124037 0.26763925
000110 5c 8d 2a 3e 76 05 df 3d c6 1e 06 3e b3 94 d4 bd
       0.16655487 0.108897135 0.13097677 -0.103799246
000120 b2 4e 20 3e 47 7b 01 3e e3 a3 15 3e 90 35 83 3d
       0.1565502 0.12644683 0.14613299 0.064067006
000130 6b 92 05 3e a6 62 01 3e 25 f1 80 3c 8c e6 2e 3b
       0.13044135 0.12635288 0.015739987 0.002668771
000140 2e 28 16 3e d7 16 35 3e 22 14 3b 3d 86 35 01 3e
       0.14663765 0.17684494 0.045673497 0.12618074
000150 55 56 f5 3e a5 9d ff bd df fe 3b 3e 0a 5f eb bc
       0.4791743 -0.1248124 0.18358944 -0.028731842
000160 80 6c 2a 3e a8 5c 46 3e c8 12 82 3e e4 1e 18 3d
       0.16642952 0.19371283 0.25404954 0.037138835
000170 4b 5d 09 3e 92 93 d1 3c 2f 03 2d 3e dd 1e 16 3e
       0.13414495 0.025583062 0.16895746 0.14660211
000180 31 36 82 3d d7 a5 4a bd f3 b5 34 3e 0c d0 f0 3d
       0.063579924 -0.049474563 0.17647533 0.11758432
000190 04 5b d7 3d ab 3c a4 3e fe 6c 8c 3d aa e2 a9 bd
       0.10515407 0.32077536 0.06856726 -0.08295186
0001a0 56 50 de bc e7 36 ed bd c9 f6 26 3e b2 8b fe 3d
       -0.027137917 -0.115827374 0.16305079 0.124289885
0001b0 78 fd 49 3e 31 b1 b1 3e f7 0e 97 bc d0 af 9f 3d
       0.19725597 0.347055 -0.018439753 0.077972054
0001c0 ea 1f ac bd 31 25 43 3d 08 be ac 3e d9 00 9b 3e
       -0.084045246 0.04764289 0.33738732 0.30274084
0001d0 c2 3a 42 bd 48 c5 f5 3d af 28 2c 3e c7 8c 20 bb
       -0.047419317 0.12000519 0.16812395 -0.0024497972
0001e0 8a 80 fd 3d 9f dd 6e 3d 5d fa d0 3d ea 30 a6 3d
       0.123780325 0.058316823 0.10204003 0.08114798
0001f0 4a da bd 3e 0e 34 00 3d 4c be 8b 3d 63 fa 56 3c
       0.37080604 0.031299643 0.068234056 0.01312122
000200 34 f5 43 bd 05 52 17 3d cc 17 84 3d d8 cc 52 bc
       -0.047841266 0.036943454 0.064498514 -0.012866221
000210 6c 3f f6 3c 88 9c fc 3d 70 92 b5 bc 3e 00 a5 bd
       0.030059539 0.123345435 -0.022164553 -0.08056687
000220 e6 2e fd 3d 80 c5 99 bd 26 1f 39 3e 3c 78 37 be
       0.12362461 -0.07508373 0.18078288 -0.1791696
000230 9c 2e bc bb 89 29 91 bc da b9 19 3d bb 8a b2 3d
       -0.005742861 -0.01772 0.037530757 0.08717867
000240 8d e5 ca 3d 24 6b 14 be 18 ba b3 bc 0d b0 98 3d
       0.099070646 -0.14493996 -0.021939322 0.07455454
000250 ab f3 12 3e 73 8c d2 3d fe b8 a6 bd 37 a9 90 bd
       0.14350764 0.10280695 -0.08140753 -0.07063525
000260 d6 64 4c 3d 92 32 3c bc 16 e5 c8 bd d1 cf 8d bd
       0.049900852 -0.011486666 -0.0980932 -0.069244035
000270 c3 31 19 be 46 b1 65 3e 67 6c 12 be de 97 c7 bc
       -0.14960389 0.22430906 -0.14299165 -0.024364408
000280 d5 fe 12 be 75 d3 15 bd 30 83 76 3e 6c a2 1d 3c
       -0.14355023 -0.036578614 0.24073482 0.009621244
000290 80 2e 13 3d a3 d0 a8 bd b2 d2 c2 3d bb b1 26 be
       0.035933018 -0.08242919 0.09512843 -0.16278736
0002a0 ce 41 cf bd 02 4c ab bd fd 49 c3 3b 85 11 d2 bd
       -0.10119973 -0.08364107 0.005959748 -0.10257248
0002b0 d1 17 6b 3c 35 c5 29 bd 11 68 1f be ab 33 c7 3d
       0.01434894 -0.041447837 -0.15567042 0.09726652
0002c0 ad d3 e1 37 b1 ee 5f 3d 2a a4 ad bc bb fb 84 3c
       2.692066e-05 0.054670993 -0.021196444 0.016233316
0002d0 6d cf c7 3d c9 21 68 b9 68 18 18 3e 9b 98 19 3e
       0.0975636 -0.0002213783 0.1485306 0.1499962
0002e0 d1 12 36 3e f6 38 72 3d 02 8b 69 3d 09 1f d6 bd
       0.17780615 0.059136353 0.057017334 -0.10455138
0002f0 c4 ba 58 be 6b b5 1c 3d 80 64 9c 3d e2 db c1 bd
       -0.21164995 0.03825895 0.07636356 -0.094657674
000300 fb d2 3b bb ff 84 c1 3d 27 5d 3a 3e 78 c7 3c 3d
       -0.002865969 0.09449195 0.18199597 0.046088666
000310 68 87 02 3e 63 6b 0c 3d 0e 59 1c 3e fd 0e 30 3d
       0.12746966 0.0342821 0.15268347 0.042983044
000320 2e dc 1c 3e ef 23 20 3d 28 e8 d7 3d 66 fa 40 bd
       0.15318367 0.03909677 0.10542327 -0.0471138
000330 4a 7b c9 bd 7f dc fb 3c ef 4c 69 3e 5e e1 fb bc
       -0.09837969 0.03074479 0.22783254 -0.030747112
000340 c5 bd cc 3d 59 d8 58 3d ce 60 46 3e 24 22 12 bd
       0.09997133 0.0529407 0.19372866 -0.03567709
000350 eb 86 e8 3d d0 07 19 be 99 fe 47 3c 4e 40 ef 3c
       0.113538586 -0.14944386 0.012206697 0.029205468
000360 87 d7 c0 ba 75 c9 62 3e 14 e3 77 bc 25 a2 bc 3c
       -0.001471267 0.22147162 -0.015129823 0.023026535
000370 83 c0 4c 3e 12 bd a0 bd ba b7 c3 bd 8c a8 32 3d
       0.19995312 -0.07848562 -0.095565274 0.04361777
000380 73 b7 a3 bd e7 41 2a 3e 38 21 1e 3e 32 ad 53 3b
       -0.079939745 0.16626702 0.1544236 0.0032299277
000390 36 e7 30 3e bc 47 84 3e 91 09 30 3c c2 14 9c bd
       0.172757 0.2583598 0.010744468 -0.07621147
0003a0 ed 15 34 be c9 69 d9 3d 7a ac aa 3e 14 72 61 3e
       -0.17586489 0.1061588 0.33334714 0.22016174
0003b0 53 ba 3b 3e 80 67 0b 3d 4f 9f 04 bd 34 44 4e 3e
       0.18332796 0.034034252 -0.03237849 0.20143205
0003c0 a1 90 24 3e e8 91 76 bc 76 f9 96 3d 52 3b b9 3c
       0.16070797 -0.015049435 0.073718 0.022611294
0003d0 4c 59 4b be ed c0 ee bd 99 c6 c6 3d 23 b3 5c 3d
       -0.19858283 -0.116578914 0.09705848 0.053881776
0003e0 12 0a 47 3e 0b 8b 17 3d ff 45 b5 3b 41 42 07 3c
       0.19437435 0.036997836 0.005532026 0.008255542
0003f0 b4 66 77 3e 61 af f9 3c ac 71 07 3e 60 3b 50 3e
       0.24160272 0.030479135 0.13226956 0.2033515

lstm.bias_hh_l0 f4 [256]
000000 b7 b8 83 3d 2e a0 24 bd dc de fb 3d c4 63 41 3e
       0.06431716 -0.04019182 0.122983664 0.18885714
000010 66 a8 73 3e da 15 52 bd 42 58 4f 3e be c4 a8 3c
       0.23794708 -0.05129037 0.20248511 0.020601626
000020 df 10 49 3e ad 28 81 3e ac 29 2f bc 14 48 8d 3d
       0.19635342 0.25226346 -0.010691088 0.068985134
000030 e2 2f 3c 3e 39 a5 d8 3d 84 12 90 bc b7 ec 20 3e
       0.18377641 0.10578389 -0.017586954 0.157153
000040 aa 03 fa bc e5 b1 93 bc 6b b0 49 bb d4 29 dc bc
       -0.030519325 -0.018029163 -0.003077532 -0.026875414
000050 5a 8e 6d 3e 3e 89 e1 3c 86 67 49 3e 00 fe e5 bd
       0.23198834 0.027531262 0.19668397 -0.11230087
000060 1f 25 ff 3d a3 7e ab 3d 12 d8 a0 bb 51 7c 1a bd
       0.12458252 0.083737634 -0.00490857 -0.037716214
000070 80 c5 3e 3e f4 d1 79 3e 25 06 bc 3d 5e ab 89 bd
       0.18630028 0.24396497 0.091808595 -0.06722139
000080 53 68 80 3d cd b8 1c bd 19 8c 85 3d 37 2f 04 bd
       0.06269898 -0.038262177 0.06520862 -0.03227159
000090 7f b5 17 3d de 3f 1c 3e b3 d0 8f bb d5 d5 34 3c
       0.037038323 0.15258738 -0.0043888926 0.01103731
0000a0 99 dc bb bd de de 0d bc 2f 8b 97 3e cd 1c 49 3e
       -0.09172935 -0.008659093 0.29598376 0.19639893
0000b0 cb ad 42 3c 2d 01 c4 3d 63 dc f1 3d 3d c9 3b 3d
       0.011882256 0.09570537 0.118096136 0.045846213
0000c0 ce 70 8e bd a3 e8 c6 bc bc b5 bc bd e3 45 60 3e
       -0.069551095 -0.024280852 -0.092143506 0.2190166
0000d0 99 e4 07 bc 66 db 82 3d 21 12 e8 3d 35 02 ed 3d
       -0.008294248 0.06389503 0.11331583 0.115726866
0000e0 70 99 9e 3e be e0 b3 3d f6 76 c1 3d 97 4f 0e 3e
       0.3097644 0.087831005 0.09446518 0.13897549
0000f0 9e 0f 46 be 68 9c c6 3d 8f ba c0 bd bb ef 9c 3c
       -0.19341895 0.09697801 -0.09410583 0.019157281
000100 5f 0c 9b 3e d4 8c d7 3d c7 7f 2c 3e ff 65 39 3e
       0.30282876 0.10524908 0.16845618 0.18105315
000110 12 77 2a 3e f4 65 85 3e 01 9d ab 3d c1 2b 76 3d
       0.16646984 0.26054347 0.083795555 0.06010032
000120 2e 77 93 3e 83 b6 12 3d 54 b7 83 bd 69 27 29 3d
       0.28801864 0.035818588 -0.064314514 0.04129735
000130 5c f1 6b 3e 69 9f a2 3e 7b 85 27 bd 32 03 96 3d
       0.2304129 0.31762245 -0.04089878 0.07324828
000140 a3 1c 8a 3e 21 0a 7a 3d cb 3d c4 3d 2b 70 3a 3e
       0.26974973 0.061044816 0.095820986 0.18206851
000150 97 a6 b8 3e 9e f7 c6 bd 1d a9 4c 3e 0f 1d 9f 3d
       0.36064598 -0.09715198 0.19986387 0.07769214
000160 5e 32 46 3d c1 b9 35 3d 78 e9 f1 3d 31 d7 17 3e
       0.048387878 0.0443666 0.11812109 0.14828183
000170 4e 6c 02 bd 56 b6 0f 3e 57 62 85 3e 4a d5 25 3e
       -0.03184157 0.140344 0.2605159 0.16194645
000180 ce 53 f1 3d fd bb e6 bc 0a 73 8e 3c a3 68 88 3e
       0.117835626 -0.028165812 0.01738884 0.2664233
000190 7b c5 42 3d 1c c6 89 3e 2d 44 3a 3d a9 6c c0 bc
       0.047551613 0.26908958 0.045475174 -0.023489313
0001a0 60 55 4c be bf a0 bc bd 64 45 6c 3e fe f6 09 3e
       -0.19954443 -0.092103474 0.23073345 0.13473126
0001b0 80 f2 2b 3e 55 5d c9 3e 3d 03 a4 3d 50 6f 76 3e
       0.16791725 0.3932902 0.0800843 0.240659
0001c0 73 78 39 3b a2 20 4e bb 08 8e c0 3e 9e 1a 64 3e
       0.0028300553 -0.0031452556 0.3760836 0.22275779
0001d0 8e f2 4d be ba b0 06 bc 71 39 ef 3c 9f a2 22 3e
       -0.20112059 -0.008220846 0.029202195 0.15882348
0001e0 69 5a d9 3d 33 e4 0c bd 61 1b 80 3d ac 56 3c 3d
       0.106129475 -0.034397315 0.06255222 0.045981094
0001f0 cb 2b 83 3e d1 ea 17 bd 8b 42 76 bd 95 89 8c 3d
       0.2561935 -0.037089173 -0.060122054 0.06862179
000200 fc 61 5b bd 36 4f 93 3d b7 99 4b bc cf 8f e2 3d
       -0.053560242 0.07192843 -0.012426785 0.110625856
000210 0c f7 4b bc cd a5 d8 3d c9 47 39 bd ca a5 2e bd
       -0.012449037 0.10578499 -0.045234475 -0.042638578
000220 a6 a1 10 3e 99 35 6c 3b 43 cb 50 3e bb 0c 92 3c
       0.14124164 0.003604269 0.20390038 0.017828336
000230 30 21 d4 bd af 71 b2 bd fe 5b 29 3d f4 eb 14 be
       -0.103578925 -0.0871309 0.041347496 -0.14543134
000240 3f 04 f1 bd 75 4a f7 bd 8c 4b 0e bd 0a 9d c9 3c
       -0.11768388 -0.120747484 -0.034740016 0.024611015
000250 0b 33 58 3d 3b db b3 bd a8 f8 1a bd c8 c1 b5 bd
       0.052783053 -0.08782049 -0.037834793 -0.088748515
000260 bc 88 a5 bd f7 16 9a bc 30 8a 97 bd 9a fe 8b bd
       -0.08082721 -0.018809779 -0.07399404 -0.06835671
000270 15 50 84 3b 64 64 75 3c 54 64 39 be 16 7b 60 3d
       0.004037867 0.014977548 -0.18104678 0.054804884
000280 fd e0 2a 3d 18 60 ca 3d c6 68 5c 3d a5 d8 a0 3d
       0.04171847 0.0988161 0.053810857 0.07853822
000290 b3 7e dc bd 61 9a 70 3d c4 1c 04 3e 69 3f 5b 3d
       -0.107663535 0.058740977 0.12901598 0.05352727
0002a0 24 bf 0e 3c 35 cd d5 3b 85 7a ab 3d 62 1d 02 bd
       0.008712564 0.0065247067 0.08372978 -0.031766303
0002b0 d7 44 19 3d 93 b5 b2 3c 39 92 d0 3b a7 ca f0 3c
       0.037419166 0.021815097 0.0063650873 0.029393507
0002c0 0d 57 32 bc 1d 2a 08 3e 62 a0 d7 3d 60 7f 70 3d
       -0.010885012 0.13297315 0.105286375 0.058715224
0002d0 20 07 c6 3d 45 ab cf bd de 54 b8 3d 34 0f 22 bc
       0.09669328 -0.10140089 0.09000562 -0.00989132
0002e0 cd 68 6b 3e 4c 8b 56 3e 42 fe ec bd fd 66 f6 bd
       0.22989197 0.20951575 -0.11571933 -0.12031362
0002f0 ba 07 06 be 71 5a 68 3d 9a 7d 26 3d 65 02 ba 3c
       -0.13088885 0.056726877 0.040647127 0.02270622
000300 c2 1a 0a 3d eb 3c 1a 3e fe 09 e1 3c 75 aa 53 3a
       0.033716924 0.15062301 0.027470585 0.00080744113
000310 91 15 13 3e 4a 7b e7 3c 3e a2 56 3e eb be 55 3b
       0.14363696 0.028257031 0.20960328 0.0032615017
000320 82 82 42 3e e3 9f 93 3c 76 18 5c 3e 91 30 d7 3d
       0.18995097 0.018020576 0.21493706 0.1050731
000330 0d b4 a6 bd 47 a8 01 3c 8d 92 88 3e dc 1b 13 3e
       -0.08139811 0.007913656 0.2667431 0.14366096
000340 34 f9 30 3d f4 45 1b 3c 06 6b 0c 3e dd 25 55 bd
       0.04320641 0.009477127 0.13712701 -0.052038062
000350 42 18 f6 3d de 5e 09 be c9 44 c1 bd 74 79 a8 3d
       0.120163456 -0.13415095 -0.09436948 0.0822629
000360 b6 fd 2c bc 09 e3 13 3e c2 c0 e1 3d e1 0f 05 3d
       -0.010558536 0.14442076 0.11023094 0.032485846
000370 d3 40 2b 3e bd 2f cb bc 63 ae cb bd ce 79 1f 3e
       0.16723947 -0.024803037 -0.09945371 0.15573809
000380 1a d2 fd 3d 8e eb fc 3c 83 c3 5f 3c 88 b2 24 3e
       0.12393589 0.03087404 0.0136574535 0.1608373
000390 52 8d 80 3e 54 96 11 3e ef bd 84 bd 03 24 94 3c
       0.2510782 0.14217502 -0.064815395 0.018083578
0003a0 30 54 a9 bc 4d 44 a3 3b ca 51 a0 3e f7 fe 37 3e
       -0.020670027 0.0049825073 0.313124 0.17968355
0003b0 4d f8 1d 3e e7 af f6 3d 3d f0 26 3e f0 cf 71 3e
       0.1542675 0.120452695 0.16302581 0.23614478
0003c0 60 34 36 bc 06 cb 07 bd 20 1a 03 bc f5 4f e3 3c
       -0.011120886 -0.033152603 -0.008001834 0.027748087
0003d0 28 a0 14 be 1c fd 64 3d 9c c8 8a 3d 27 1d eb bd
       -0.1451422 0.055905446 0.067765445 -0.1148017
0003e0 11 70 1c 3e 8d 0d 19 3d 88 91 94 bd ea a5 78 3c
       0.15277125 0.03736644 -0.072543204 0.015176276
0003f0 87 cd b6 3d 78 23 ec 3d 03 06 5e 3b 14 5a 1e 3e
       0.0892592 0.115302026 0.0033878095 0.1546405

attention.projection.0.weight f4 [64, 64]
000000 2d 6d c0 bd 60 4a 55 bd 47 ca 4a 3c 11 49 20 bd
       -0.09395824 -0.052072883 0.012377328 -0.03913218
000010 97 71 21 3d df 5c d9 bc 19 1e 44 3b f1 6a b0 3d
       0.03941497 -0.026533542 0.0029925166 0.086141475
000020 d3 34 5d 3d 01 a4 ab 3d ce 61 b3 bb 27 de 69 bd
       0.054005455 0.08380891 -0.0054743057 -0.057096627
000030 5c 98 b7 3c 07 3e 09 3e 19 37 9a 3c 06 75 c5 bc
       0.022411518 0.13402568 0.0188251 -0.024103653
000040 72 ad 71 3d 33 43 12 3e 81 f8 7b bd 98 82 bd 3c
       0.0590033 0.14283447 -0.06151629 0.023133561
000050 7e 45 32 3d 6c 11 6f 3d af 95 83 bd bd c8 c0 3c
       0.043523304 0.058366224 -0.06425034 0.02353322
000060 84 5b 87 bd ba 1f 43 bd b1 d8 bd bc 8b e8 1a be
       -0.06609252 -0.04763768 -0.023174616 -0.1512777
000070 b4 1f 80 3d 1b e8 f2 3b 2c 7f b6 bb ac 43 b4 38
       0.06256047 0.007412923 -0.0055693593 8.595674e-05
000080 bd a9 96 bc 09 40 82 bb 05 7d 15 bc 59 61 b0 bd
       -0.018391484 -0.0039749187 -0.009124045 -0.086123176
000090 12 7e 9b 3d cf e6 bf 3d 50 f7 0b bc 80 2e 91 bd
       0.075924054 0.09370195 -0.008542851 -0.07088947
0000a0 00 2e d0 bd e0 d2 45 3d 78 89 20 3d 26 81 0c 3d
       -0.10165024 0.04829681 0.0391936 0.034302853
0000b0 7c 32 94 bc 81 e3 6f bd e3 cc 30 bc 41 ab f7 3d
       -0.01809048 -0.058566574 -0.010791036 0.12093211
0000c0 98 fc 83 bd f7 c8 ea 38 e2 5b e5 3d 11 d4 24 bd
       -0.06444663 0.00011195422 0.11199166 -0.040241305
0000d0 75 ce a5 3d 56 b7 eb bd bd 9b 3d be fa 87 16 3e
       0.08096019 -0.11509578 -0.1851644 0.14700308
0000e0 92 f3 2e be 92 42 9c bd 0e 6d cd bd 08 4b de bc
       -0.17085102 -0.07629885 -0.10030566 -0.027135387
0000f0 db 36 9f bc cd 51 bb 3d e2 b4 f1 bd 10 27 6e 3b
       -0.019435337 0.09146462 -0.11802079 0.00363392
000100 0f a1 0e 3e 17 be c1 3d d9 b1 df bd 97 6f 30 3e
       0.13928626 0.09460085 -0.109225936 0.17230068
000110 ac fb a2 bd 78 14 14 3e b0 de 21 bd 97 bd a7 bd
       -0.07958159 0.14460933 -0.039519012 -0.08190458
000120 45 85 ed bd 23 51 e4 3c 13 fa c5 bc 22 a9 c8 bd
       -0.11597685 0.02787072 -0.024167096 -0.097978845
000130 f4 e6 d2 3d c1 0e ae ba b0 c9 b9 bd 33 72 1b be
       0.10297957 -0.0013279543 -0.09071672 -0.15180282
000140 26 69 da bd 51 a9 b4 bd 54 65 8a bd c2 5b a5 3d
       -0.10664587 -0.08821357 -0.06757608 0.08074142
000150 63 e3 07 be f4 c9 5c be 72 7c 0b 3e 35 03 29 3e
       -0.13270335 -0.21561414 0.13621691 0.1650513
000160 00 37 5c 3c e4 20 d6 bd c6 06 b5 3d 31 2f a6 bd
       0.013440847 -0.10455492 0.088391826 -0.0811447
000170 59 ad 9e 3d 8c db 8e 3e fb 11 3a be 9b aa 67 3e
       0.07747907 0.27901876 -0.18170922 0.22623675
000180 a8 7b 82 be a1 28 95 3d 8f 39 2e 3d b9 20 91 3e
       -0.25484967 0.0728314 0.04253536 0.28345278
000190 b7 85 80 3d ed 0f ab 3d 12 5b 49 3c ee d9 9f bc
       0.06275504 0.08352647 0.012289779 -0.019513097
0001a0 c2 7a f5 be 9b 4b 84 3d 4c 58 c8 3c b0 49 a1 bd
       -0.4794522 0.06459733 0.024456166 -0.07875383
0001b0 49 7f b6 be 1f c9 59 be 0f e1 c7 be 4d e4 78 3e
       -0.35643986 -0.21268128 -0.39038894 0.2430584
0001c0 11 e4 cc bd 57 2e ad bd be fa 01 bf 06 ae 50 3d
       -0.10004438 -0.08456104 -0.5077323 0.05094721
0001d0 d6 4b 32 3d f0 84 09 be 11 15 51 3e eb c3 7e bd
       0.043529354 -0.13429618 0.20418192 -0.06219856
0001e0 12 0c 8e 3e 82 3f ac bd ef 05 0b bd 6f 90 21 3e
       0.27743584 -0.08410551 -0.033941206 0.15777753
0001f0 4c 83 b4 be 34 32 d0 3d f0 df 51 3d 24 2a 93 be
       -0.35256422 0.101658255 0.051238954 -0.28743088
000200 59 d3 1f be 2c de 21 be 82 03 c3 bc c4 71 90 bd
       -0.15607966 -0.15807408 -0.023805384 -0.07052949
000210 83 25 ef 3d 97 1d 06 3d 73 c6 b1 3d 59 40 80 be
       0.11677077 0.032743063 0.08680429 -0.25049093
000220 5d 33 4a bd 58 75 3b 3b 04 b2 9a 3e 9e 76 51 3d
       -0.04936539 0.0028603878 0.3021394 0.051138513
000230 9e de 05 3e bc d8 1b be 30 0f 13 be cd 81 e0 3b
       0.13073203 -0.15219396 -0.14361262 0.006851411
000240 97 86 e9 bd 10 37 50 be 0b 6d 03 be a2 b6 ab 3d
       -0.11402624 -0.20333505 -0.12834565 0.08384444
000250 17 52 20 3c 25 46 2a 3f a3 1c 86 3d 70 79 af be
       0.009785197 0.6651328 0.06548431 -0.34272337
000260 89 f2 44 be d7 2f 09 bd 98 c2 7d be a9 37 69 3e
       -0.19233145 -0.03349289 -0.24781263 0.22775139
000270 09 b1 4a bb 73 b9 81 3d dc db 9e bd bb b7 a8 be
       -0.0030928275 0.063342 -0.077567786 -0.32952675
000280 da 50 10 3d 35 cb 62 be 47 bf 19 3e e2 51 8f bd
       0.035233356 -0.2214783 0.15014373 -0.0699804
000290 74 b4 db 3d 09 0f 81 bd 9d f3 1a bc 67 63 eb 3d
       0.10727778 -0.06301696 -0.009457496 0.11493569
0002a0 2f 27 60 3f 62 f1 7c 3e d1 13 f8 bd 5d 62 55 3e
       0.8755979 0.24701455 -0.12113155 0.20838304
0002b0 1b ec 1c 3f a4 d7 41 3d 53 a0 00 be 27 5d a6 bc
       0.6129777 0.04732479 -0.12561159 -0.02030809
0002c0 bf ac 92 be 43 e9 20 be df 94 51 3e 4e bc e6 3d
       -0.2864742 -0.15713982 0.20466946 0.11266385
0002d0 a6 0f 0d 3f be 76 89 3e c8 9c a7 3e 5f c2 08 be
       0.55102 0.26848406 0.32736802 -0.13355397
0002e0 78 0e 62 3d 01 24 78 bc ba 7b 48 3c e9 02 65 be
       0.05518958 -0.015145303 0.01223653 -0.22364391
0002f0 0c d6 18 3f d1 76 c6 3e 92 cc 1a 3e 40 bd 17 3e
       0.5970161 0.38762525 0.151171 0.14818287
000300 a5 b9 ac bc 05 31 f4 bd 33 f2 a4 3c 8c 02 69 bc
       -0.021084616 -0.11923412 0.02013502 -0.014221799
000310 a4 54 53 3e ee 53 e9 3d 1f 93 21 3d 37 bf 57 be
       0.20637757 0.113929614 0.039446946 -0.21069036
000320 d9 00 8c bd 2a 34 e8 3d ba bc 6b 3e ad 47 5d bd
       -0.06836099 0.113380745 0.23021212 -0.054023433
000330 f7 50 ad 3c a0 d5 ec bd 2d 34 ac 3d 9c 75 33 3d
       0.021156771 -0.11564183 0.08408389 0.043813333
000340 fd 58 f5 3c 83 c8 09 be 0c c5 55 3d 6b 27 3a 3e
       0.02994966 -0.13455395 0.05218987 0.181791
000350 02 e5 2c 3e a9 8b be 3e e7 d1 ad 3d 8e 5e dc be
       0.16884235 0.37215927 0.08487301 -0.4304089
000360 e2 83 b4 bd 1a a3 1d be 26 7c cd bd 50 f2 6a 3d
       -0.08814217 -0.1539425 -0.10033445 0.057359993
000370 26 79 13 be 03 35 8e bd f1 cf 90 be d3 64 4c be
       -0.14401683 -0.06943705 -0.28283647 -0.19960336
000380 a6 e9 e2 3d c6 3c a1 bd 34 b7 2d 3e 94 1f 63 be
       0.11079721 -0.0787292 0.16964418 -0.22180015
000390 c5 b8 2c 3d 9e df 29 bd 7c 5f 40 bd 0e 7a 2b 3d
       0.042168397 -0.041473024 -0.04696606 0.041864447
0003a0 24 f6 0f 3f ff 53 b3 3d 8d ed 1f be 0b cc 1f 3e
       0.56234956 0.08756255 -0.15617962 0.1560518
0003b0 bd e8 9f 3e 50 16 1a bd 1f e9 1c 3a 45 36 02 be
       0.31232253 -0.037618935 0.00059856655 -0.12716015
0003c0 96 d4 3a be 60 0d 24 3c f7 81 92 3e ca 8b 3a 3e
       -0.18245158 0.0100129545 0.2861478 0.18217388
0003d0 17 83 2a 3e ca 7f 0a 3e d0 18 93 3e 3d f5 8a be
       0.1665157 0.1352531 0.28729868 -0.27140227
0003e0 db d5 6b bc 44 b5 e2 bd 58 a6 37 bd b8 fd 9c be
       -0.014394249 -0.1106973 -0.044836372 -0.30662322
0003f0 9a d7 91 3e 3d 69 4e 3e 5a dc d6 3d 66 02 0c bc
       0.28484803 0.20157333 0.104912475 -0.008545494

attention.projection.0.bias f4 [64]
000000 aa d0 19 be 17 fc 1a 3e 10 ea 67 3e c3 64 21 3e
       -0.15021005 0.15135227 0.22647882 0.15761094
000010 aa f6 e2 3d 28 b7 bb 3c c2 fe 15 bd 8a e8 c5 3d
       0.11082204 0.022914484 -0.03661991 0.09663494
000020 5c 6d d4 3d 58 3e 13 3e 62 15 01 3d 1b 7e 97 bd
       0.10372421 0.14379251 0.031514533 -0.073970996
000030 2c 8e 7d 3c 82 a4 d2 bc a6 77 a8 3d 7a e7 1c be
       0.015475791 -0.025713209 0.08225946 -0.15322676
000040 27 dd 31 3e fe 5f ca bd e2 be a7 bc 8a d9 85 3d
       0.17369519 -0.0988159 -0.020476762 0.06535633
000050 13 49 a0 3d e6 18 0f bd f8 e5 1c 3e b7 e4 4a bc
       0.07826438 -0.034935854 0.15322101 -0.012383631
000060 be 0f 9d 3d 5f a4 1c be 07 31 5c 3c 7d 14 23 3e
       0.07669018 -0.15297078 0.013439423 0.15925784
000070 30 76 ba 3d f6 ac dd bd 2a b0 8d 3e 5a c4 b5 3d
       0.09104574 -0.10824005 0.27673465 0.08875342
000080 86 b2 1f be d8 0a ac bd 2c 39 87 3e 59 20 58 3e
       -0.15595445 -0.08400506 0.26410806 0.2110609
000090 2a 3f 03 3e 7d 64 14 3e b0 ad c6 bd 2a 85 ab 3e
       0.12817064 0.14491458 -0.09701097 0.33500034
0000a0 7e 95 d3 3c dd aa 48 be 24 cf c1 bd 15 25 8c bc
       0.02582812 -0.19596429 -0.09463337 -0.017107526
0000b0 69 b2 4a be ef bb 16 3e 6b 84 c3 3d 12 82 97 3c
       -0.1979462 0.14720128 0.09546741 0.01849464
0000c0 e4 8b 46 3e f3 05 1f bd 3b 75 07 3e dc 40 a4 3c
       0.19389302 -0.038824033 0.13228314 0.020050459
0000d0 eb ab fb 3d 2e 0d 67 bd e7 33 75 3e c1 9e 3e bc
       0.1228865 -0.056409054 0.2394558 -0.01163453
0000e0 0a fa 37 3e 6d 5e a6 3d 55 d0 1a bd a9 bc 4e 3e
       0.17966476 0.08123479 -0.037796337 0.20189156
0000f0 ea fa 45 bd d4 9f 9b 3d 9c 15 d9 3d fd 46 5d 3e
       -0.048334993 0.07598844 0.10599825 0.21609111

attention.projection.2.weight f4 [1, 64]
000000 c6 79 ca bb e6 10 54 be 06 c0 91 3e 88 66 1e 3e
       -0.0061790673 -0.20709571 0.28466815 0.154688
000010 a0 34 85 3e 46 82 54 bd e9 ae 0c bc 61 8f 3b be
       0.26016712 -0.05188205 -0.008586624 -0.18316413
000020 99 84 a1 3e 79 67 31 be 39 a0 06 3e ca 10 b1 bb
       0.31546476 -0.17324628 0.13147058 -0.0054036127
000030 5f 5d 8c 3e f3 a9 15 3e 16 0e 0f be 6b 11 eb 3d
       0.27414986 0.14615612 -0.13970217 0.114779316
000040 cd ad 6e 3e d4 b5 35 bc ca 8f b0 39 ff c7 8d be
       0.23308487 -0.0110907145 0.00033676467 -0.27691647
000050 9a 74 41 3e 06 ee ec 3e 7e f3 71 3e 5b ce 8c be
       0.18892136 0.46275347 0.23628041 -0.27501187
000060 7e d0 2f 3e bf d7 8d 3c ca 7a 6a 3e bd 88 3c be
       0.17169377 0.01731479 0.22898403 -0.18411537
000070 11 05 55 3e 8a 64 d5 3d 05 04 8b 3e a4 59 1d be
       0.20802714 0.10419567 0.27151504 -0.15366226
000080 73 5b a3 bc 32 ba 7b 3d 10 0e 09 be e6 29 3e be
       -0.019941067 0.061456867 -0.1338427 -0.1857067
000090 8b 56 52 be 28 c2 a3 3e dd 5e 96 3c 53 ec 83 bd
       -0.20540826 0.31984067 0.018355781 -0.0644156
0000a0 ae 94 26 3d 60 ed 49 bc 98 8e a6 be a1 2e c8 bc
       0.040669136 -0.012324661 -0.32530665 -0.024436297
0000b0 2a 23 20 bb 41 5a 6a 3e fd 38 d6 3d 92 0f a8 3e
       -0.0024435022 0.22885992 0.104600884 0.3282438
0000c0 eb af 0e 3e ef 3e 8b bd e2 6e 8d 3e db ee 36 3e
       0.13934295 -0.06799113 0.2762366 0.17864554
0000d0 22 1d 15 3e 6e fb f7 be dd d2 b0 3e 46 ec ae bb
       0.14561895 -0.48434013 0.34535876 -0.0053382246
0000e0 a6 b0 0b be f0 08 20 3d 7e e6 3b bd 4b e2 96 3e
       -0.13641605 0.039071023 -0.04587411 0.29469523
0000f0 3d f0 06 be e3 be 05 be ea 8c 84 3e 59 95 9b 3e
       -0.13177581 -0.13061099 0.2588876 0.3038738

fc.weight f4 [4, 64]
000000 fd 05 9e be 7c 0b 37 bc 39 6f 18 3d e9 e5 a2 be
       -0.30863944 -0.011172172 0.037215445 -0.31816033
000010 b0 66 4e 3d ed 2a 35 be 11 f7 67 bf 19 14 39 be
       0.0503909 -0.17692156 -0.9061137 -0.18074073
000020 ca e7 54 3d 27 57 fe bd 07 0e a1 3e 59 09 15 3f
       0.051978864 -0.12418967 0.31456015 0.5821739
000030 52 94 39 be 28 74 27 3c 37 9d 12 bf ad 57 b3 3e
       -0.18122986 0.010220565 -0.5727114 0.3502783
000040 b3 76 4f bd 94 e1 29 be df e4 97 be 18 fc 53 bd
       -0.05065031 -0.16589957 -0.29666802 -0.051754087
000050 80 75 b0 3e 14 98 f0 3e a4 ac 8c be 6f c4 1a be
       0.34464645 0.46991026 -0.27475464 -0.15113996
000060 50 2a 9b be b9 59 5e be 04 9b a3 bd be 2d 5d 3d
       -0.3030572 -0.21713914 -0.07988551 0.0539987
000070 bd 62 3c be 09 b0 df be 5a 44 24 3e 59 a0 86 be
       -0.1839704 -0.43688992 0.16041699 -0.2629421
000080 71 a4 2b 3f 16 12 e0 bc 4a de 31 3d 9b 31 c5 bf
       0.6704779 -0.027352374 0.043424882 -1.5405763
000090 01 2f 2a 3e d4 52 3a 3e c4 cd 29 3e 11 03 a3 bc
       0.16619493 0.18195659 0.165824 -0.019898923
0000a0 f5 8f 00 3f 50 38 42 be b3 18 8f be dd 2f 60 3e
       0.5021966 -0.18966794 -0.27948532 0.21893258
0000b0 06 e1 a9 3e 23 20 33 3e 03 f4 02 3e a1 33 48 bf
       0.33179492 0.17492728 0.12788396 -0.7820378
0000c0 46 b2 d5 bc 71 d4 50 bf a7 17 9f 3f 6f 6e 9b be
       -0.026085984 -0.8157416 1.2429093 -0.30357692
0000d0 55 ff db 3d 74 9d 03 3e 14 31 7c bd 1b e2 3c 3e
       0.1074206 0.12853032 -0.061570242 0.18445627
0000e0 f0 b1 c5 bd b8 60 05 bf d3 54 50 be f3 b1 6e be
       -0.096530795 -0.52100706 -0.20344858 -0.2331007
0000f0 f1 93 ed bd fe 02 1c bd 50 24 47 3e c5 8c a4 3e
       -0.11600483 -0.03808879 0.19447446 0.3213865
000100 98 fc dd bd 61 13 c8 bd ee 36 b4 3b 73 6e e2 bd
       -0.10839194 -0.09769321 0.005499712 -0.11056223
000110 d9 6d 97 3e 06 17 af 3e 0a de f2 3d 80 e1 38 be
       0.29575995 0.34197253 0.11858757 -0.18054771
000120 06 60 ee 3d 6d 0d 73 3e 83 60 65 3e 74 14 b4 be
       0.11639409 0.2373559 0.22400098 -0.35171854
000130 33 17 cc 3d 9c 02 2b bb 68 6e 09 3e 48 55 0e 3e
       0.099653624 -0.0026094085 0.13421023 0.1389972
000140 da d0 b3 3d 83 9e 15 3f ea 72 3d be 6e 5f 00 3e
       0.0878007 0.58444995 -0.18500867 0.12536404
000150 21 8a 15 bf 91 a1 f3 be 22 98 cb 3d d5 20 95 3d
       -0.58413893 -0.47584203 0.099411264 0.07281653
000160 31 68 61 3d d7 33 04 3d e9 37 0d 3e 33 9a 91 3b
       0.055031005 0.032276 0.1379086 0.004443431
000170 3f d4 d7 bd aa 1e 91 3e 04 fb 2b be 87 d5 1c 3e
       -0.105385296 0.28343707 -0.16794974 0.15315829
000180 e1 64 e5 be 15 19 03 3f 30 30 c2 bc d2 92 5a 3f
       -0.44803527 0.5121015 -0.023704618 0.8538028
000190 3e 8f d3 3c 64 38 d0 3d 84 6a 8a 3d 81 a6 1b bf
       0.02582514 0.10167006 0.067585975 -0.6080094
0001a0 76 0b 2e bf db a8 f4 be f9 23 95 3d 20 5d e5 bd
       -0.6798624 -0.47785076 0.07282252 -0.11199403
0001b0 74 4b 49 3e 15 4e aa 3d db a6 23 bd fb ed cc 3e
       0.1965769 0.08315674 -0.039954048 0.40025315
0001c0 19 29 16 3f 2b 41 1b 3f c3 dd 66 bf 6f 88 ad bd
       0.5865646 0.60646313 -0.9018213 -0.08473288
0001d0 e1 21 d3 be de 87 ea be 47 12 be bd 29 cf 76 be
       -0.41236785 -0.45806783 -0.0928083 -0.24102463
0001e0 06 14 93 bc 16 81 d4 3e 18 56 ac be 2b 9c 83 3e
       -0.017953884 0.41504735 -0.33659434 0.25705084
0001f0 b2 7a a8 3f 6c b9 3c be 30 48 0f 3d ee db 9b be
       1.3162444 -0.18430108 0.034980953 -0.3044123
000200 1a 9d 16 be c5 42 21 3f 50 02 b7 3d 92 93 8d 3e
       -0.14708367 0.6299251 0.08935988 0.2765165
000210 cc 01 b7 be 5f 62 42 bd 05 83 2b be 3f 1e 63 3e
       -0.35743558 -0.047457095 -0.16749199 0.22179507
000220 f0 7b 0a bb 05 65 8b bc 0b 67 80 bd 99 98 61 be
       -0.0021131001 -0.017015943 -0.06269654 -0.22030868
000230 10 6e 89 3e 3f 24 f9 bd d8 c1 f1 3e 29 5d 76 be
       0.26841784 -0.121651165 0.47218204 -0.24058975
000240 80 53 b7 3d 4c 3a c8 be cd 29 81 3f 10 fd 42 3e
       0.08951473 -0.39106977 1.0090882 0.19041848
000250 33 b7 bc be b3 77 a4 3c be 3a 7c 3e 27 d5 aa bd
       -0.3685852 0.020076608 0.24631783 -0.08341437
000260 16 66 f3 3e ac 78 fd 3e 99 95 33 bd ab ea 89 be
       0.47538823 0.49506128 -0.04384384 -0.2693685
000270 a6 1a ef 3e 67 cd 4a 3e c3 0a c6 bd 4f 5a 26 be
       0.4670002 0.19804917 -0.096700214 -0.16245387
000280 59 03 d1 be 84 8b 2c bf 4f 6e 39 be 17 a0 25 3f
       -0.40822867 -0.67400384 -0.18108486 0.646974
000290 0d 30 33 bf 69 ce 03 bf 5b 90 a2 be 84 54 db 3e
       -0.69995195 -0.5148683 -0.3175076 0.42837918
0002a0 ab 3f 91 3a 67 20 e6 3e 13 18 fa 3e 1e 7a 83 3e
       0.0011081597 0.44946596 0.48846492 0.25679106
0002b0 85 40 51 be 35 36 d5 3c ac b5 ff bd a3 7d e7 3e
       -0.20434768 0.026026824 -0.12485823 0.4521304
0002c0 fc 94 02 bf 52 1e 17 3f 5f 7d 8c be e9 aa 0a bd
       -0.5100858 0.5903064 -0.274394 -0.0338544
0002d0 6d db 68 3e eb 21 d6 3d bc 79 f4 3d 20 df 99 bd
       0.22739954 0.10455688 0.119372815 -0.07513261
0002e0 b6 8b 27 3d b0 aa db 3e 9f 33 87 3e 7d bf fe bd
       0.040904723 0.42903662 0.2640657 -0.12438867
0002f0 2a fe b7 bd 22 b9 8e 3e a1 70 94 be 78 44 99 3e
       -0.08984025 0.2787562 -0.2899218 0.2993505
000300 28 27 0b 3f 4b c4 6d be af 0c 87 3d 3f 76 9f 3e
       0.5435662 -0.23219411 0.06594216 0.31144902
000310 fe 91 29 be c9 72 da bd ab 85 ba 3f da d7 95 3e
       -0.16559598 -0.10666425 1.4572042 0.29266244
000320 bb 9f a6 3e d3 a3 9c be 67 ec 26 bf 69 6b 23 3e
       0.3254374 -0.30593738 -0.6520447 0.15958942
000330 92 bc 3d be 38 3b ad bd 8a 8f e8 3d df b8 cf be
       -0.18528965 -0.08458561 0.11355503 -0.40570733
000340 6a 08 32 be cc 5f bc bc 58 66 70 be 74 01 62 be
       -0.17386022 -0.022994898 -0.23476541 -0.22070867
000350 69 10 3d 3f f1 69 c9 be 9c 03 53 3c 7b 7a 07 3f
       0.73853165 -0.3933864 0.0128792785 0.52921265
000360 92 23 b1 bd 70 10 11 be af cc 68 be 6e f5 71 3e
       -0.086493626 -0.14166427 -0.2273433 0.2362878
000370 76 9d 21 bd 4e 97 63 be 72 ad 29 3e e5 d9 8e 3e
       -0.039456807 -0.22225687 0.1657007 0.27900615
000380 ae 44 f2 3e e8 01 c7 3e 72 0f 14 3e 4d 3e 8a 3e
       0.47318023 0.38868642 0.14459017 0.27000657
000390 53 b8 66 3e 84 0c 77 3e 4b 9d 41 3d c0 da 3c 3e
       0.22531252 0.24125868 0.047269147 0.18442822
0003a0 f9 82 bc be cf d9 23 be 9b 01 be be 03 68 c5 be
       -0.36818674 -0.16001056 -0.371106 -0.38555917
0003b0 0a 69 78 bf 49 3b 7d be 7d da 0a 3e 3e d2 21 be
       -0.97035277 -0.24729647 0.13559909 -0.15802857
0003c0 e8 20 6e 3e 7c 3f 9e 3b ae dd af 3e 0d 61 84 3e
       0.2325474 0.0048293453 0.34348816 0.25855294
0003d0 12 16 a9 be 23 64 d3 bd be 5d 93 bc f8 fd 66 3e
       -0.3302465 -0.10321834 -0.017989036 0.22557819
0003e0 59 a1 bc bc df 59 c7 be 8f 26 80 3e a4 48 4e 3d
       -0.023026155 -0.38935754 0.25029418 0.050362244
0003f0 3f 04 d8 bf 13 c6 9c bd 85 5b 8d 3e 60 4f 13 bf
       -1.6876296 -0.07654967 0.27608886 -0.5754299

fc.bias f4 [4]
000000 44 bb b4 3d 44 75 5c 3c 45 74 26 3e 70 fe 86 bd
       0.088247806 0.013455693 0.16255291 -0.06591499
